notebooks/assets/base_nnc6_57.pth (torch, 539303 bytes, 145 tensors)

conv_1.weight f4 [45, 3, 3, 3]
-0.07866103 0.16736472 0.16376328 0.1878576 -0.19334176 -0.004514746 -0.086494215 0.08423151
0.048364982 -0.21624488 -0.2205841 0.17812936 -0.039883953 -0.100816935 -0.123183824 -0.0060045905
-0.06345678 0.16168176 -0.057702553 0.1715693 0.18726544 -0.03389319 -0.07762776 0.100614145
-0.023612406 0.13897786 -0.14893314 0.13706002 -0.11350451 0.20864333 0.06651849 -0.16244356
-0.03694984 0.031659912 0.03893295 -0.031770915 0.02285656 -0.018976292 -0.08667324 0.09462068
-0.06652058 -0.1395982 0.21021248 0.10803961 -0.12749876 -0.024195805 -0.0561473 -0.058889657
0.16506211 -0.18691684 -0.067689665 0.10225041 0.013337309 -0.087400675 0.11327244 -0.15102504
0.04462996 -0.015013721 -0.16288336 0.016469242 0.075065166 -0.027300032 -0.06436525 0.04552228
0.23070273 0.2883735 -0.09886747 0.16558942 0.2429432 -0.11429992 -0.15557957 0.0062386794
0.09560115 -0.033797354 0.19661865 -0.1172658 0.13648656 -0.034881927 -0.1542174 0.04447578
-0.086964004 -0.16899993 -0.04548617 0.005287883 0.13248342 -0.110301696 -0.14966881 -0.013370382
-0.025535868 -0.045519035 0.17502642 0.18558617 -0.08908489 -0.084976256 -0.10874249 -0.03456391
-0.000166777 0.1614019 -0.12285828 0.0041237753 0.14996704 0.15159991 0.03997568 0.14536364
0.15071113 -0.06820781 -0.104513384 0.21351029 0.1245024 0.16719536 0.065204725 -0.15774168
0.14836769 0.099790245 -0.05429686 -0.005049941 0.1052817 -0.04312179 0.030184468 -0.07257615
-0.005120103 -0.014307742 -0.07172225 0.10471653 -0.15636972 -0.12180832 -0.16558196 0.040448748
0.15750706 -0.005768099 0.14641269 0.13230489 0.10803481 -0.14501841 0.12078596 0.01611447
0.07670052 -0.010318652 -0.06426296 -0.11262468 0.12886375 0.053290833 0.05813298 0.16591519
-0.12189281 0.07374333 0.15675493 -0.095589094 -0.08950633 -0.1550603 -0.13363497 0.02461972
0.16144599 0.11425134 -0.1405347 -0.27115503 0.04262989 -0.06089034 0.068650454 0.1952436
-0.1688902 0.17961128 0.19126402 0.15172312 -0.15570359 -0.052328434 0.16898544 0.09813173
-0.02448184 0.05423736 -0.12650217 0.11948207 -0.18818727 0.08790509 0.08076632 0.014219762
0.21279562 0.05493261 0.07309756 0.1499052 0.17439021 0.08687517 -0.15585203 -0.17554379
-0.07316732 -0.13442588 -0.15236987 -0.15866704 0.054912537 -0.12308595 -0.022099636 0.061006796
0.054084796 0.022303369 -0.099277906 0.20005855 -0.10374939 0.022709163 0.029936777 -0.08314646
-0.07711718 0.28301746 0.0046928455 -0.19382617 0.20262334 0.009086785 0.13879496 0.061118845
0.026616255 0.039668698 -0.067855075 0.0068926965 -0.01149667 0.12717421 -0.18676397 0.0057776473
0.15305367 0.12456868 0.07201778 -0.113047644 -0.13788317 0.073562644 -0.12656318 0.13274154
0.03088087 0.03504913 0.15587135 0.055192668 0.14384413 -0.058680978 0.03005673 0.14891908
-0.17244697 0.01708393 -0.09318972 -0.1315228 -0.005195711 0.06854819 -0.22084181 -0.052637216
0.19360961 -0.07080067 -0.11114788 0.0766034 0.016531304 -0.16931199 -0.024838608 -0.099248715
0.046802536 0.06288229 0.05222448 0.21017034 0.1411391 -0.115626425 -0.14710726 -0.02716674
00000000: 0919 a1bd a861 2b3e 90b1 273e be5d 403e
00000010: 62fb 45be 6ff0 93bb e123 b1bd 9281 ac3d
00000020: 5c1a 463d 4c6f 5dbe cce0 61be 8b67 363e
00000030: 5b5d 23bd 1c79 cebd cd47 fcbd 28c2 c4bb
00000040: a1f5 81bd e78f 253e 8359 6cbd ddaf 2f3e
00000050: 83c2 3f3e 96d3 0abd 4efb 9ebd ca0e ce3d
00000060: ce6e c1bc 3650 0e3e ee81 18be 7659 0c3e
00000070: 0d75 e8bd 99a6 553e d93a 883d 9b57 26be
00000080: b758 17bd d3ad 013d 2878 1f3d 3822 02bd
00000090: ae3d bb3c 2b74 9bbc bd81 b1bd 7dc8 c13d
000000a0: f13b 88bd d5f2 0ebe f141 573e df43 dd3d
000000b0: 098f 02be 4836 c6bc b6fa 65bd 4836 71bd
000000c0: 0b06 293e 2167 3fbe e1a0 8abd aa68 d13d
000000d0: ba84 5a3c 20ff b2bd 62fb e73d 4fa6 1abe
000000e0: e8cd 363d 1cfc 75bc e5ca 26be 81ea 863c
000000f0: c4bb 993d 51a4 dfbc eed1 83bd 9275 3a3d
00000100: 563d 6c3e b1a5 933e 077b cabd 4690 293e
00000110: 1ac6 783e 1416 eabd 4050 1fbe d66d cc3b
00000120: 89ca c33d 186f 0abd 6656 493e 0d29 f0bd
00000130: 22c3 0b3e 5ae0 0ebd 2beb 1dbe 3c2c 363d
00000140: 2f1a b2bd 510e 2dbe b54f 3abd fa45 ad3b
00000150: bca9 073e dbe5 e1bd c842 19be 720f 5bbc
00000160: 9930 d1bc 2b72 3abd 203a 333e 4d0a 3e3e
00000170: 2472 b6bd 0808 aebd 62b4 debd e392 0dbd
00000180: dce0 2eb9 8a46 253e 1f9d fbbd bc20 873b
00000190: f690 193e 023d 1b3e 8abd 233d 35da 143e
000001a0: 0554 1a3e 89b0 8bbd 1d0b d6bd 71a2 5a3e
000001b0: 1dfb fe3d 4335 2b3e 0e8a 853d 0987 21be
000001c0: b3ed 173e d45e cc3d 6266 5ebd fa79 a5bb
000001d0: ef9d d73d 79a0 30bd 6b45 f73c cea2 94bd
000001e0: 89c6 a7bb 056b 6abc 1de3 92bd 9f75 d63d
000001f0: 621f 20be a476 f9bd 518e 29be 96ad 253d
00000200: 8849 213e 5202 bdbb 35ed 153e ef7a 073e
00000210: 5b41 dd3d b57f 14be a15e f73d 7e02 843c
00000220: 2a15 9d3d 900f 29bc 4c9c 83bd c5a7 e6bd
00000230: dcf4 033e 7d47 5a3d d91c 6e3d ace5 293e
00000240: f0a2 f9bd be06 973d 5d84 203e 37c4 c3bd
00000250: 184f b7bd 21c8 1ebe 9bd7 08be 4caf c93c
00000260: 1952 253e 9bfc e93d 54e8 0fbe d5d4 8abe
00000270: ae9c 2e3d 2668 79bd 9c98 8c3d f0ed 473e
00000280: 8df1 2cbe 05ec 373e b7da 433e 4e5d 1b3e
00000290: c370 1fbe 5756 56bd 850a 2d3e 4af9 c83d
000002a0: 248e c8bc fe27 5e3d c989 01be 04b3 f43d
000002b0: 2ab4 40be 9507 b43d d068 a53d 01fa 683c
000002c0: 18e7 593e 0401 613d 2cb4 953d c080 193e
000002d0: 5993 323e 9ceb b13d ad97 1fbe c0c1 33be
000002e0: bfd8 95bd f0a6 09be d906 1cbe 9d79 22be
000002f0: f8eb 603d 7d14 fcbd 4c0a b5bc 43e2 793d
00000300: 0588 5d3d 8eb5 b63c 3752 cbbd 26dc 4c3e
00000310: 8f7a d4bd 9108 ba3c f93d f53c b148 aabd
00000320: 9def 9dbd aae7 903e 71c6 993b 5e7a 46be
00000330: 7e7c 4f3e bde0 143c 4420 0e3e c157 7a3d
00000340: 550a da3c a57b 223d 9af7 8abd 21dc e13b
00000350: 875c 3cbc f539 023e 0e3f 3fbe 6b52 bd3b
00000360: 1aba 1c3e dd1d ff3d 0f7e 933d 8685 e7bd
00000370: 3f31 0dbe 03a8 963d c799 01be 66ed 073e
00000380: e1f9 fc3c ad8f 0f3d bd9c 1f3e b511 623d
00000390: e04b 133e 775b 70bd 8839 f63c 3e7e 183e
000003a0: f095 30be 99f3 8b3c 40da bebd eaad 06be
000003b0: c840 aabb fe62 8c3d 5b24 62be 1f9a 57bd
000003c0: 9941 463e f1ff 90bd 80a1 e3bd 3ee2 9c3d
000003d0: a86c 873c 1f60 2dbe 567a cbbc e942 cbbd
000003e0: 04b4 3f3d 6ec8 803d 56e9 553d e536 573e
000003f0: c586 103e 8ccd ecbd 49a3 16be c88c debc

conv_1.bias f4 [45]
-0.041468218 0.119954795 0.10211369 0.12780268 -0.26197064 0.08363571 0.12651779 -0.13488959
0.13323806 0.16839693 0.18693008 -0.05220572 0.117256165 0.006799241 0.062545024 -0.10686282
0.15092617 -0.100508 0.07443041 0.0499416 -0.07308116 0.0010829982 0.15364316 0.192299
0.088627815 -0.17114359 0.08383378 -0.14387697 0.10589801 0.22236225 -0.044649143 -0.13335574
0.12103462 0.25368395 -0.060690634 -0.03821297 -0.074032515 0.16172309 0.12580955 -0.06633217
0.04797897 0.14664245 0.030314192 0.057341017 -0.066757604
00000000: 94da 29bd dcaa f53d fb20 d13d b5de 023e
00000010: 0421 86be 3349 ab3d e18d 013e 7f20 0abe
00000020: 8f6f 083e 3f70 2c3e 996a 3f3e aad5 55bd
00000030: 0024 f03d 2bcc de3b 9b17 803d e5da dabd
00000040: 648c 1a3e 23d7 cdbd f96e 983d 908f 4c3d
00000050: 93ab 95bd 64f3 8d3a a254 1d3e 07ea 443e
00000060: 8082 b53d 4440 2fbe 0bb1 ab3d 7c54 13be
00000070: 0ee1 d83d eeb2 633e 05e2 36bd 688e 08be
00000080: 00e1 f73d dde2 813e be96 78bd 3485 1cbd
00000090: 5c9e 97bd bd9a 253e 38d4 003e 29d9 87bd
000000a0: 9985 443d 7029 163e 7855 f83c 6ade 6a3d
000000b0: 36b8 88bd

norm_1.weight f4 [45]
0.9067769 1.0602465 0.9734521 0.9211315 0.8513603 1.0131887 0.8996246 0.9460768
0.90496427 0.9813339 0.99322873 0.8980813 0.9712815 0.87263453 0.9649834 1.0623901
1.0539191 1.0667548 0.9126086 0.9786372 1.0979542 1.0128629 1.0129454 1.1134791
0.9592931 1.0167382 0.9582247 1.0468225 1.0792084 0.976737 1.12145 0.9789032
1.0531868 1.048084 1.0185846 0.8652736 0.9666329 0.9540879 1.0321848 0.9288848
0.943728 1.0433644 0.9616918 1.0612462 0.9897083
00000000: 8822 683f 28b6 873f 2834 793f 46cf 6b3f
00000010: c0f2 593f 2bb0 813f cc4d 663f 1732 723f
00000020: bdab 673f b338 7b3f 3d44 7e3f a8e8 653f
00000030: e8a5 783f fa64 5f3f 2709 773f 66fc 873f
00000040: d2e6 863f 6c8b 883f b8a0 693f f887 7a3f
00000050: c389 8c3f 7ea5 813f 32a8 813f 7c86 8e3f
00000060: 3c94 753f 7a24 823f 374e 753f 48fe 853f
00000070: 8023 8a3f 700b 7a3f ac8b 8f3f 6699 7a3f
00000080: d3ce 863f 9e27 863f fb60 823f 9282 5d3f
00000090: 4175 773f 1b3f 743f a21e 843f 65cb 6d3f
000000a0: 2998 713f f78c 853f 6f31 763f ead6 873f
000000b0: 865d 7d3f

norm_1.bias f4 [45]
-0.050184097 -0.1264979 -0.07384685 -0.10355379 -0.15448807 -0.09548843 -0.04964742 -0.12355364
-0.17712523 -0.04988856 -0.10219296 -0.18231383 -0.07387133 -0.15053166 -0.055203516 -0.079670675
-0.083045796 0.0010756548 -0.1757832 -0.13342081 -0.00047647586 -0.04390322 -0.105768085 -0.044306546
-0.2266545 -0.08961182 -0.0615984 0.038963825 -0.057515502 -0.08102622 0.03290848 -0.21683341
0.035195816 -0.009347615 -0.068170734 -0.2515016 -0.09395965 -0.04092641 -0.050036293 -0.16930547
-0.12361546 0.01556551 -0.045624454 -0.0021742869 -0.05470348
00000000: d78d 4dbd aa88 01be 043d 97bd 0214 d4bd
00000010: 1f32 1ebe 708f c3bd 185b 4bbd b109 fdbd
00000020: 5160 35be f257 4cbd 8b4a d1bd 7ab0 3abe
00000030: da49 97bd f924 1abe 151d 62bd 612a a3bd
00000040: ea13 aabd fcfc 8c3a 8300 34be 779f 08be
00000050: 82cf f9b9 ddd3 33bd f09c d8bd c87a 35bd
00000060: 1e18 68be 6786 b7bd 9b4e 7cbd 8898 1f3d
00000070: 6095 6bbd 13f1 a5bd 0bcb 063d 9409 5ebe
00000080: 7d29 103d bd26 19bc 199d 8bbd d1c4 80be
00000090: eb6d c0bd 74a2 27bd dbf2 4cbd 6a5e 2dbe
000000a0: 1a2a fdbd 7b06 7f3c b5e0 3abd 7b7e 0ebb
000000b0: c210 60bd

norm_1.running_mean f4 [45]
-0.15199886 0.20682274 0.071079694 -0.16721314 -0.43335295 0.09885491 0.34310535 -0.14061576
0.3088947 0.3067067 0.22318552 -0.16530484 0.14027034 -0.03516344 0.033859678 -0.048823528
0.15692283 0.006389841 -0.09612596 0.58848274 0.026539424 -0.14368087 0.26670992 0.17084312
0.3117327 0.091447175 -0.13810606 -0.08086862 0.025143007 0.27755988 -0.011870236 0.22455026
0.24362057 0.10642794 -0.21820927 -0.1185997 -0.079613596 0.18812758 0.13720256 0.12442862
0.11206396 0.3162194 -0.069579616 0.036330003 -0.022503879
00000000: 97a5 1bbe 57c9 533e 3b92 913d ec39 2bbe
00000010: 70e0 ddbe 7174 ca3d 81ab af3e 94fd 0fbe
00000020: 7227 9e3e a908 9d3e bf8a 643e ac45 29be
00000030: 07a3 0f3e 8a07 10bd 72b0 0a3d 2efb 47bd
00000040: 61b0 203e df61 d13b b0dd c4bd cea6 163f
00000050: 3569 d93c 1421 13be 348e 883e 80f1 2e3e
00000060: 6e9b 9f3e a848 bb3d ad6b 0dbe 729e a5bd
00000070: b5f8 cd3c 541c 8e3e 617b 42bc 81f0 653e
00000080: ac77 793e e4f6 d93d 4072 5fbe 66e4 f2bd
00000090: 740c a3bd 84a4 403e d47e 0c3e 6fd4 fe3d
000000a0: ca81 e53d 82e7 a13e c27f 8ebd c5ce 143d
000000b0: 0e5a b8bc

norm_1.running_var f4 [45]
0.024108885 0.037618086 0.076803856 0.026559772 0.04677763 0.015982268 0.068878725 0.04139199
0.023984846 0.031566903 0.0078013213 0.050094444 0.019813277 0.08740349 0.03790635 0.015494129
0.009285884 0.015448776 0.016103074 0.08912949 0.005166102 0.008652375 0.033368997 0.009433051
0.10605599 0.0640526 0.030029388 0.024973972 0.0077429153 0.027342647 0.012805754 0.08840333
0.010148053 0.012207651 0.01382749 0.04062137 0.25774622 0.029293457 0.011005733 0.062242772
0.018269487 0.016073275 0.032206487 0.0025263166 0.045699973
00000000: ff7f c53c 6c15 1a3d 574b 9d3d e193 d93c
00000010: e699 3f3d 3fed 823c 4a10 8d3d a68a 293d
00000020: de7b c43c 4c4c 013d 3aa2 ff3b d52f 4d3d
00000030: 744f a23c 9a00 b33d b043 1b3d 16db 7d3c
00000040: d223 183c dd1c 7d3c 98ea 833c 8689 b63d
00000050: 6848 a93b b1c2 0d3c eead 083d 158d 1a3c
00000060: e233 d93d 022e 833d 3100 f63c 3796 cc3c
00000070: 48b8 fd3b b0fd df3c 3acf 513c ce0c b53d
00000080: 0544 263c 9902 483c b28c 623c 9862 263d
00000090: 50f7 833e d5f8 ef3c 6451 343c 47f2 7e3d
000000a0: e4a9 953c 1aac 833c f3ea 033d 8f90 253b
000000b0: e52f 3b3d

conv_2.weight f4 [25, 45, 3, 3]
-0.008952967 0.0047935653 -0.03230851 -0.029466879 0.085440814 0.054989904 -0.0422059 -0.02240626
-0.012820285 -0.08311581 0.06666936 -0.038903438 -0.051793978 0.07343266 -0.0057223346 -0.054028068
-0.007934285 -0.0020551302 -0.1053419 -0.028831769 -0.044076998 -0.030612886 -0.060810085 -0.016048163
-0.016971476 -0.06841262 -0.017929973 -0.037789743 0.037017636 0.016965212 0.039990608 0.00671242
0.0015197716 -0.016363118 0.020114852 0.020006698 0.034268465 0.029366659 0.05514007 0.01842932
0.015360762 -0.017138444 -0.074334994 -0.034180213 -0.038569853 0.02503373 0.046595976 0.041127775
-0.07809301 -0.015909752 -0.04121035 0.0047816066 -0.0140614305 -0.03767492 0.008560298 -0.06291706
-0.030415457 -0.03934494 0.031176528 -0.047659535 -0.089524664 -0.083262995 -0.017995605 -0.11625219
-0.017313475 -0.06469124 -0.06408101 0.042389218 -0.025458911 -0.11504528 -0.053328753 0.024426544
0.016008068 -0.0065860525 0.033923443 -0.03349981 -0.057769045 -0.002143216 -0.09479269 -0.061294228
-0.027733529 -0.013858092 -0.0011739983 -0.04957476 -0.020902952 0.026659558 -0.018531669 -0.01997302
-0.01767179 -0.009678212 0.03908268 -0.13203774 0.05968138 0.031820048 -0.023629386 0.053779785
0.035649884 0.012545036 -0.04864288 -0.09387109 0.029252382 -0.055760738 -0.07425806 -0.03622085
-0.007201366 -0.08169901 -0.09189541 -0.03285134 -0.066715986 -0.011570588 -0.039644875 -0.05171037
-0.061403 -0.045209855 -0.0032789926 -0.017645383 0.0010247244 -0.024510175 0.06453349 -0.043091033
-0.052587576 -0.020567445 -0.0969687 -0.120521314 -0.048508886 -0.0027670104 0.023235954 -0.036334164
-0.046844278 -0.017802825 -0.026265144 -0.06954384 -0.041064534 -0.014484409 -0.020859487 0.03453362
0.032040134 -0.044918712 0.011597006 -0.029150123 -0.034664743 -0.06626915 -0.07207438 0.009036195
-0.10254213 0.03958495 -0.035910062 -0.14120324 0.06975347 0.038114883 0.008793893 -0.0017804895
0.06847 -0.0050193234 -0.050444897 0.04909512 0.104443185 0.004738658 0.07719738 0.059335444
0.008544483 0.018416401 0.052301634 -0.055800848 0.06676852 -0.011985342 -0.06659972 -0.005666567
-0.1130578 -0.02977258 -0.013585385 0.053806912 0.058309045 0.056358974 0.04367005 0.040986013
0.04904174 -0.040239975 -0.03183572 0.037527617 -0.014490213 -0.0118811065 -0.0670299 0.120822586
0.009844914 0.06929138 0.059743013 0.0863333 0.035836592 0.08047524 0.007635402 -0.02544049
0.063475646 0.025469592 -0.08156032 0.005405847 -0.040420163 -0.010525126 -0.07080132 -0.062126625
0.0016882942 0.07993612 0.022019885 0.023489721 0.022094464 -0.015270218 -0.0113436505 -0.11324001
-0.04419166 0.043551113 -0.09006067 -0.07046518 0.02029277 0.013526104 -0.042469114 0.007804929
-0.036625594 -0.012773464 -0.05499351 -0.059447348 -0.05972069 -0.04467268 -0.020190613 0.004895927
-0.018590167 0.024136866 0.0048843976 -0.024598988 0.027506283 -0.033683125 0.06029617 -0.013007874
0.00496693 -0.012594102 0.033199064 0.016668675 0.07513906 -0.0032608744 -0.06952311 0.0024083783
-0.061906796 -0.06332759 -0.059425108 0.07281343 0.00084907486 0.0050163283 0.018611822 -0.0050533754
0.028341938 -0.040150344 -0.0030707286 -0.022436691 0.08148139 0.05770995 0.015620235 0.01395998
00000000: 77af 12bc 5713 9d3b ee55 04bd 8664 f1bc
00000010: 98fb ae3d 183d 613d 18e0 2cbd 558d b7bc
00000020: 2c0c 52bc 9f38 aabd f289 883d 3659 1fbd
00000030: ec25 54bd dd63 963d 6c82 bbbb 894c 5dbd
00000040: cefe 01bc 5daf 06bb 7ebd d7bd 9a30 ecbc
00000050: 158a 34bd e0c7 fabc ff13 79bd 7077 83bc
00000060: c407 8bbc ea1b 8cbd e1e1 92bc 6bc9 1abd
00000070: ce9f 173d a1fa 8a3c 31cd 233d dcf3 db3b
00000080: 1333 c73a f20b 86bc e7c7 a43c 16e5 a33c
00000090: 175d 0c3d 5992 f03c 8eda 613d 16f9 963c
000000a0: b5ab 7b3c ec65 8cbc f23c 98bd 8d00 0cbd
000000b0: 6cfb 1dbd 8913 cd3c 6cdb 3e3d 9975 283d
000000c0: 3aef 9fbd 2b55 82bc 2fcc 28bd 06af 9c3b
000000d0: ea61 66bc 0451 1abd 7e40 0c3c a9da 80bd
000000e0: d629 f9bc 2928 21bd eb65 ff3c a536 43bd
000000f0: b558 b7bd ca85 aabd 856b 93bc a115 eebd
00000100: fdd4 8dbc d77c 84bd e83c 83bd 51a0 2d3d
00000110: 358f d0bc dc9c ebbd 406f 5abd 2d1a c83c
00000120: 5a23 833c d0cf d7bb 4ff3 0a3d 1937 09bd
00000130: 3c9f 6cbd 3375 0cbb ab22 c2bd a80f 7bbd
00000140: 6d31 e3bc 0d0d 63bc d9e0 99ba e70e 4bbd
00000150: ab3c abbc 2565 da3c bacf 97bc 759e a3bc
00000160: 6ec4 90bc 5d91 1ebc 2915 203d e734 07be
00000170: 7674 743d bd55 023d 6a92 c1bc 3148 5c3d
00000180: 9d05 123d b289 4d3c c23d 47bd 7c3f c0bd
00000190: b1a2 ef3c 5f65 64bd 9c14 98bd 505c 14bd
000001a0: 70f9 ebbb d051 a7bd a933 bcbd 208f 06bd
000001b0: 64a2 88bd 9092 3dbc aa62 22bd 41ce 53bd
000001c0: b681 7bbd f82d 39bd 5ee4 56bb 0d8d 90bc
000001d0: 0c50 863a 90c9 c8bc 222a 843d 3980 30bd
000001e0: 1266 57bd 0f7d a8bc 8797 c6bd e1d3 f6bd
000001f0: 41b1 46bd bb56 35bb 5459 be3c 22d3 14bd
00000200: c9df 3fbd 3bd7 91bc 002a d7bc 006d 8ebd
00000210: 4933 28bd 0450 6dbc 84e1 aabc 2073 0d3d
00000220: 843c 033d affc 37bd 5e01 3e3c 3dcc eebc
00000230: 9efc 0dbd 1fb8 87bd bc9b 93bd 8d0c 143c
00000240: 9c01 d2bd d423 223d 6e16 13bd 9597 10be
00000250: e8da 8e3d 5a1e 1c3d 4314 103c 505f e9ba
00000260: 003a 8c3d 2379 a4bb 4f9f 4ebd f717 493d
00000270: 4fe6 d53d bf46 9b3b a919 9e3d b909 733d
00000280: 29fe 0b3c fedd 963c 3d3a 563d 6e8f 64bd
00000290: efbd 883d 2b5e 44bc 6f65 88bd 9cae b9bb
000002a0: d98a e7bd a0e5 f3bc 3c95 5ebc a364 5c3d
000002b0: 77d5 6e3d abd8 663d 5edf 323d f3e0 273d
000002c0: fedf 483d acd2 24bd 2c66 02bd 8fb6 193d
000002d0: 5c68 6dbc f9a8 42bc f946 89bd d571 f73d
000002e0: 904c 213c a4e8 8d3d 17b5 743d 83cf b03d
000002f0: 64c9 123d 34d0 a43d 6532 fa3b 9368 d0bc
00000300: 85ff 813d 9ba5 d03c 1909 a7bd 8823 b13b
00000310: 9d8f 25bd 9471 2cbc 4800 91bd 7d78 7ebd
00000320: c149 dd3a 8cb5 a33d 0c63 b43c 846d c03c
00000330: 73ff b43c f02f 7abc b8da 39bc 61ea e7bd
00000340: 5002 35bd a762 323d bb71 b8bd 0c50 90bd
00000350: 063d a63c 989c 5d3c 18f4 2dbd 7dc0 ff3b
00000360: b804 16bd cb47 51bc e040 61bd 107f 73bd
00000370: af9d 74bd b3fa 36bd c966 a5bc 036e a03b
00000380: 684a 98bc adba c53c 4c0d a03b d183 c9bc
00000390: db54 e13c 51f7 09bd 1ef9 763d fa1e 55bc
000003a0: a1c1 a23b 7e57 4ebc befb 073d bf8c 883c
000003b0: 82e2 993d 65b4 55bb 2262 8ebd e2d5 1d3b
000003c0: fb91 7dbd e5b1 81bd be67 73bd 351f 953d
000003d0: 7394 5e3a 0360 a43b d277 983c c996 a5bb
000003e0: 5a2d e83c b074 24bd 473e 49bb 27cd b7bc
000003f0: b7df a63d 4561 6c3d 04ec 7f3c 66b8 643c

conv_2.bias f4 [25]
-0.007669094 0.12376144 -0.014937994 -0.04826506 -0.03997368 -0.04117395 0.019672895 -0.016551062
0.012383904 0.009273718 -0.06655285 -0.048425388 0.051740743 -0.024328269 -0.09664756 0.034435406
-0.103737995 0.07856091 0.038133983 0.0548229 0.07912434 0.011048958 0.02823626 0.008145481
0.06719377
00000000: 064d fbbb a376 fd3d 7dbe 74bc 95b1 45bd
00000010: 71bb 23bd 04a6 28bd 0d29 a13c 1896 87bc
00000020: dce5 4a3c cbf0 173c dc4c 88bd b359 46bd
00000030: 1aee 533d 144c c7bc 28ef c5bd 240c 0d3d
00000040: 9674 d4bd 8be4 a03d 6132 1c3d fa8d 603d
00000050: f10b a23d b006 353c bb4f e73c a074 053c
00000060: e39c 893d

norm_2.weight f4 [25]
1.0116761 0.9327852 0.99752957 0.97457254 1.0297909 0.9662474 1.0672965 1.0637078
0.9465619 1.0587603 0.9948351 0.94663286 0.97124547 0.9028874 1.00374 1.0343862
1.0758301 0.9785642 1.0031089 1.0073295 0.9619544 0.96890426 0.99304414 1.0653783
0.95063233
00000000: 9a7e 813f 03cb 6e3f 195e 7f3f 967d 793f
00000010: 30d0 833f fd5b 773f 2c9d 883f 9427 883f
00000020: e151 723f 7585 873f 83ad 7e3f 8856 723f
00000030: 8ba3 783f a123 673f 8d7a 803f c466 843f
00000040: cdb4 893f 2f83 7a3f df65 803f 2cf0 803f
00000050: a542 763f 1c0a 783f 2438 7e3f 515e 883f
00000060: a45c 733f

norm_2.bias f4 [25]
-0.11328954 -0.13757657 -0.22731431 -0.008351704 0.01207654 -0.07416714 -0.046142504 -0.02120628
-0.20551671 -0.14847136 -0.12281311 -0.18248704 -0.041569147 -0.15235914 -0.0026343265 -0.07884792
0.015995147 -0.07144828 -0.19716886 -0.05521982 -0.12452807 -0.0832469 -0.1374992 -0.03662607
-0.124788456
00000000: 5904 e8bd dfe0 0cbe 15c5 68be 96d5 08bc
00000010: aedc 453c f1e4 97bd ecff 3cbd cbb8 adbc
00000020: f972 52be e008 18be 7185 fbbd e2dd 3abe
00000030: 6944 2abd 0904 1cbe aaa4 2cbb 057b a1bd
00000040: 4108 833c 7a53 92bd a2e6 49be 2e2e 62bd
00000050: 9308 ffbd 5a7d aabd 97cc 0cbe 3805 16bd
00000060: 1791 ffbd

norm_2.running_mean f4 [25]
-0.5592108 -0.059768133 -0.5854165 -0.12394821 -1.3388323 -2.063425 -1.3630772 -1.9611328
-3.544882 -1.1127597 -0.25743523 -1.3840497 -1.3200139 1.8525261 -0.7282322 3.9543605
-0.8902751 -2.769857 -2.532428 1.814397 -2.0977962 -1.0179807 -0.7902088 -0.87634194
0.656485
00000000: 7028 0fbf 6ecf 74bd dbdd 15bf 8fd8 fdbd
00000010: db5e abbf 280f 04c0 5079 aebf 6606 fbbf
00000020: 59df 62c0 e96e 8ebf 8dce 83be 8a28 b1bf
00000030: 37f6 a8bf 931f ed3f 6d6d 3abf 3e14 7d40
00000040: 12e9 63bf 5645 31c0 4d13 22c0 293e e83f
00000050: 4b42 06c0 314d 82bf 204b 4abf f257 60bf
00000060: 670f 283f

norm_2.running_var f4 [25]
0.7500542 2.3683393 0.637184 2.8885484 1.9306027 1.6557417 1.4449432 1.9945275
2.8551643 1.0140513 2.3711898 1.3946353 2.0671551 1.5256145 0.8809925 1.809477
0.99610424 3.2368681 2.2609322 1.3850807 2.2715373 1.4045244 0.96241057 0.7471331
1.1780552
00000000: 8d03 403f df92 1740 7e1e 233f fadd 3840
00000010: fd1d f73f 58ef d33f e6f3 b83f ad4c ff3f
00000020: 03bb 3640 6fcc 813f 93c1 1740 6983 b23f
00000030: 454c 0440 5647 c33f b988 613f f19c e73f
00000040: b000 7f3f d928 4f40 1db3 1040 534a b13f
00000050: de60 1140 75c7 b33f 8a60 763f 1d44 3f3f
00000060: 83ca 963f

conv_3.weight f4 [50, 25, 3, 3]
0.013339684 0.007560161 -0.041178647 -0.061174087 -0.014675259 -0.018900158 -0.045694724 -0.0044346014
-0.053012982 0.01996571 -0.007193223 -0.019961052 0.020271057 0.038436476 0.030671671 -0.019791879
0.054974977 0.027156452 -0.13547525 -0.091652274 -0.09392598 -0.05833468 0.015026382 0.09175813
-0.042473447 -0.015245127 0.050196923 -0.025888212 0.0195158 0.029595593 0.045391954 -0.031726398
-0.025921315 -0.020863784 0.04213752 -0.060352456 0.040418178 -0.020613521 0.024392795 -0.08635327
-0.11142947 0.009697928 -0.022150366 -0.023134861 -0.045047738 -0.058183793 -0.006908741 0.01527784
-0.12658256 -0.0078016785 -0.009981254 -0.071496926 -0.0017375888 -0.05738562 0.008913399 -0.10081703
-0.026869178 -0.07113372 -0.030648382 -0.01801368 -0.012398564 -0.101772174 -0.013094131 -0.045249876
-0.11093923 -0.005018431 -0.028008701 -0.030452823 -0.05892337 0.010452952 0.046656817 -0.026689991
-0.06754382 -0.16169311 -0.08142876 -0.115875535 -0.19014896 -0.14361139 -0.064756826 -0.11026868
-0.0078406865 0.06449951 0.04194204 -0.004908684 0.008342262 0.03145066 0.054707125 -0.018881878
0.051959224 0.028454814 0.104193866 0.07128625 -0.0074040475 0.06360623 0.13366114 0.026366292
-0.009990184 0.021561902 -0.03684169 -0.07548675 -0.09630411 -0.07771924 0.028115008 -0.13589281
-0.0027661114 0.017355682 -0.069568045 -0.020983623 -0.060781006 -0.08508441 0.03902717 -0.07625867
-0.006805965 -0.018888518 -0.00789883 0.03248376 0.019815257 0.051243804 0.09322017 0.026406666
0.033019006 0.101247564 0.06502618 0.08327093 0.07484713 0.031406313 0.021363942 0.021239541
0.043304455 -0.015325922 -1.5367846e-06 0.022965593 -0.054780234 -0.009913087 -0.040539462 -0.0823205
-0.09494787 -0.010229187 0.0038943572 -0.017287249 -0.039022878 -0.11491739 -0.024151335 -0.07858176
0.008535754 0.04478301 -0.021708792 0.05327063 -0.03362845 0.051782798 0.059289537 -0.022193152
0.08055388 -0.17169951 -0.10433378 -0.17299853 -0.067142315 -0.13018465 -0.0942627 -0.060691126
-0.10800633 -0.09952897 -0.032372784 0.002345196 0.0728157 0.050412167 -0.021222776 0.0076906392
0.08928967 0.022878144 0.14346884 -0.02158058 -0.0014025989 -0.014231444 0.052526128 -0.054451626
0.062498853 0.03271 -0.036077544 0.037161183 -0.09415815 -0.17201655 -0.05568953 -0.021975286
-0.1044825 -0.050682373 -0.0644878 -0.05064471 0.042029984 -0.067997254 0.034693368 0.00091737224
-0.05532664 -0.04532465 0.067038365 0.03874008 -0.0065200888 -0.07475669 -0.043384947 0.018571008
-0.027761307 -0.01564913 0.032661293 0.064859055 0.031171052 -0.024870632 0.035504464 0.066635564
0.06784986 -0.0004266239 -0.0063498924 0.005611594 0.054552827 -0.007493705 0.080131695 0.0782936
-0.16465259 -0.07442984 -0.071302235 -0.09010397 -0.103466935 -0.08372585 -0.08674159 -0.068317145
-0.11970166 -0.03518984 0.09259521 0.07668409 0.03883203 -0.0022571387 0.052631278 0.057991195
-0.0012210212 0.0549771 -0.056998182 -0.11372511 -0.0134600885 -0.031882998 0.03969738 -0.031237924
0.015198189 -0.092810445 -0.019707402 -0.045941915 0.045010597 0.010990751 -0.07960775 0.0361941
0.0029176385 -0.007843532 -0.062412977 0.02150795 -0.05511005 -0.012160269 -0.11392698 -0.021037262
00000000: b18e 5a3c 3abb f73b f1aa 28bd ae91 7abd
00000010: 7f70 70bc 81d4 9abc 642a 3bbd 2250 91bb
00000020: 2424 59bd 218f a33c 21b5 ebbb 5c85 a3bc
00000030: 7d0f a63c 916f 1d3d 2843 fb3c 9422 a2bc
00000040: 712d 613d 3577 de3c 06ba 0abe 30b4 bbbd
00000050: 445c c0bd 58f0 6ebd 3731 763c b0eb bb3d
00000060: a3f8 2dbd b2c6 79bc 4a9b 4d3d 8413 d4bc
00000070: 99df 9f3c 7572 f23c eaec 393d 8af3 01bd
00000080: f058 d4bc 87ea aabc 6498 2c3d 2334 77bd
00000090: 888d 253d b0dd a8bc 66d3 c73c fcd9 b0bd
000000a0: 2235 e4bd 0fe4 1e3c af74 b5bc 5285 bdbc
000000b0: fa83 38bd 2152 6ebd b862 e2bb e84f 7a3c
000000c0: dc9e 01be 39a5 ffbb 6a88 23bc fb6c 92bd
000000d0: cebf e3ba 2f0d 6bbd 8109 123c 2979 cebd
000000e0: c01c dcbc 8eae 91bd 5112 fbbc 6d91 93bc
000000f0: 5923 4bbc ee6d d0bd c488 56bc ef57 39bd
00000100: 1b34 e3bd a771 a4bb 8172 e5bc 3378 f9bc
00000110: a259 71bd dc42 2b3c 381b 3f3d f8a4 dabc
00000120: 6a54 8abd e192 25be 1fc4 a6bd 2750 edbd
00000130: 69b6 42be dd0e 13be 3a9f 84bd 8cd4 e1bd
00000140: 3976 00bc 5218 843d 6bcb 2b3d 07d9 a0bb
00000150: fcad 083c 68d2 003d 9414 603d 2bae 9abc
00000160: 32d3 543d 121a e93c 9863 d53d 87fe 913d
00000170: a79d f2bb fc43 823d 77de 083e 1ffe d73c
00000180: dead 23bc 96a2 b03c 50e7 16bd cc98 9abd
00000190: 173b c5bd 442b 9fbd 7251 e63c 7c27 0bbe
000001a0: a647 35bb 812d 8e3c b179 8ebd d9e5 abbc
000001b0: 81f5 78bd bc40 aebd f4da 1f3d 812d 9cbd
000001c0: 9304 dfbb 18bc 9abc 186a 01bc b10d 053d
000001d0: 9b53 a23c 06e5 513d 37ea be3d cb52 d83c
000001e0: f03e 073d e25a cf3d 722c 853d f389 aa3d
000001f0: 7449 993d e8a3 003d 6f03 af3c 8cfe ad3c
00000200: 0360 313d 9319 7bbc 8443 ceb5 5722 bc3c
00000210: 3d61 60bd 806a 22bc b50c 26bd a697 a8bd
00000220: 0774 c2bd 5298 27bc 7938 7f3b fd9d 8dbc
00000230: 74d6 1fbd cf59 ebbd 05d9 c5bc 79ef a0bd
00000240: 8cd9 0b3c 646e 373d a3d6 b1bc 4e32 5a3d
00000250: fcbd 09bd 331a 543d 96d9 723d 6ace b5bc
00000260: 6ff9 a43d ffd1 2fbe f3ac d5bd 8726 31be
00000270: e981 89bd 204f 05be cd0c c1bd 4297 78bd
00000280: 6c32 ddbd d8d5 cbbd 5399 04bd dcb1 193b
00000290: 6620 953d fd7c 4e3d 63db adbc c201 fc3b
000002a0: 81dd b63d f26a bb3c 7fe9 123e c2c9 b0bc
000002b0: 69d7 b7ba 012b 69bc a325 573d ab08 5fbd
000002c0: ccfe 7f3d ecfa 053d 0cc6 13bd 5336 183d
000002d0: fdd5 c0bd 1b25 30be b41a 64bd 8405 b4bc
000002e0: ecfa d5bd 5298 4fbd 2e12 84bd d470 4fbd
000002f0: a227 2c3d 2542 8bbd a21a 0e3d cf7b 703a
00000300: 309e 62bd 57a6 39bd 694b 893d ebad 1e3d
00000310: 78a6 d5bb 091a 99bd 6ab4 31bd 3a22 983c
00000320: ae6b e3bc 9b32 80bc d9c7 053d d3d4 843d
00000330: 6f5a ff3c 7fbd cbbc 216d 113d 3a78 883d
00000340: def4 8a3d 7eac dfb9 c212 d0bb 76e1 b73b
00000350: c972 5f3d c18d f5bb 161c a43d 6558 a03d
00000360: b09a 28be ac6e 98bd e806 92bd 6e88 b8bd
00000370: 79e6 d3bd 7578 abbd 93a5 b1bd dce9 8bbd
00000380: 2526 f5bd 3923 10bd 8fa2 bd3d 8c0c 9d3d
00000390: 560e 1f3d 81ec 13bb e593 573d 2d88 6d3d
000003a0: ac0a a0ba ab2f 613d ed76 69bd b6e8 e8bd
000003b0: b487 5cbc bf97 02bd b899 223d ade6 ffbc
000003c0: d301 793c 6713 bebd 6b71 a1bc 972d 3cbd
000003d0: 085d 383d 8d12 343c 6309 a3bd 4440 143d
000003e0: da35 3f3b 2882 00bc c0a4 7fbd 7131 b03c
000003f0: 13bb 61bd dd3b 47bc 8c52 e9bd 5656 acbc

conv_3.bias f4 [50]
-0.07190689 -0.083276585 -0.053099353 0.027554572 -0.0004938482 -0.014313723 -0.043110725 0.076584816
0.011195066 -0.06024715 -0.021363167 -0.032948386 -0.058299415 0.041825164 -0.102934144 0.05491828
-0.10631941 0.028801255 0.037332047 0.00037565673 -0.025194276 -0.0412066 -0.054565415 -0.040300038
0.017606122 -0.031475533 0.04923571 -0.0390365 0.09393621 -0.04067462 -0.03388633 -0.0020166102
-0.06801921 -0.04467893 -0.05606795 -0.044956747 -0.0033615702 0.09555062 0.04613975 0.1252093
0.037603866 0.0089136725 0.031228848 -0.01588769 -0.082836784 -0.045865003 -0.0033892493 0.030670082
-0.05227984 -0.059080083
00000000: eb43 93bd ea8c aabd b57e 59bd 20ba e13c
00000010: 9775 01ba 1b84 6abc df94 30bd 80d8 9c3d
00000020: 836b 373c b7c5 76bd cf01 afbc e3f4 06bd
00000030: 5ecb 6ebd dd50 2b3d 23cf d2bd fef1 603d
00000040: febd d9bd 9cf0 eb3c 7de9 183d cbf3 c439
00000050: 3a64 cebc 40c8 28bd fc7f 5fbd a711 25bd
00000060: b73a 903c 7dec 00bd 62ab 493d bde4 1fbd
00000070: a161 c03d 6e9a 26bd 64cc 0abd 1b29 04bb
00000080: a84d 8bbd 4101 37bd 82a7 65bd 9124 38bd
00000090: ca4d 5cbb 0bb0 c33d 09fd 3c3d de36 003e
000000a0: 8306 1a3d a70a 123c a4d3 ff3c e726 82bc
000000b0: 55a6 a9bd f1dc 3bbd 2b1e 5ebb d33f fb3c
000000c0: 6323 56bd f5fd 71bd

norm_3.weight f4 [50]
0.98498845 0.9940943 0.92854804 0.9799863 1.0125542 0.9349398 0.9912761 1.0286497
1.0063827 0.9861128 1.0367534 0.9909295 1.007204 1.0160018 1.0018569 0.97832924
1.0493463 1.0259142 0.937154 1.0731802 0.99040824 0.9773169 0.98818576 0.99580204
1.0122548 0.97764885 1.0027987 1.0021362 0.99109644 1.0111915 0.99979293 1.0269202
1.0583099 1.0254161 1.0112059 1.0291927 0.9689902 0.9839022 1.000196 1.0057222
0.96884716 0.92387635 1.0149862 0.9996932 0.9888512 1.0185966 0.9849848 0.9098352
0.9609072 1.0035877
00000000: 3428 7c3f f77c 7e3f 53b5 6d3f 62e0 7a3f
00000010: 609b 813f 3758 6f3f 45c4 7d3f cbaa 833f
00000020: 26d1 803f e371 7c3f 56b4 843f 8ead 7d3f
00000030: 10ec 803f 590c 823f d93c 803f c973 7a3f
00000040: fb50 863f 2851 833f 53e9 6f3f f85d 893f
00000050: 658b 7d3f 7131 7a3f bef9 7c3f e2ec 7e3f
00000060: 9191 813f 3247 7a3f b55b 803f 0046 803f
00000070: 7fb8 7d3f b96e 813f 6ef2 7f3f 1f72 833f
00000080: b376 873f d640 833f 326f 813f 96bc 833f
00000090: be0f 783f 04e1 7b3f 6c06 803f 81bb 803f
000000a0: 5e06 783f 2983 6c3f 11eb 813f e5eb 7f3f
000000b0: 5a25 7d3f 6061 823f f727 7c3f f6ea 683f
000000c0: 04fe 753f 9075 803f

norm_3.bias f4 [50]
0.0022236155 0.0091118375 0.056251444 0.004500651 0.06628674 0.032740127 -0.010919415 -0.09326258
-0.036473554 0.030628636 0.036108233 0.036217548 0.024699604 -0.0141515555 0.07379763 -0.03740535
0.06435468 0.013380693 0.003339927 0.052826967 0.023825258 0.008230849 0.063964255 0.027183162
-0.025127593 -0.01093041 0.0055797826 0.057349555 -0.050514486 0.03542141 -0.047645222 0.039574534
0.019852398 0.050969105 0.015609361 0.015642187 -0.034881204 -0.050775 -0.061675366 -0.08088712
0.021616992 -0.0003628222 0.0055200243 0.011248755 0.0628557 -0.006810578 0.00885402 -0.029517675
0.027326338 0.0060916976
00000000: 14ba 113b d149 153c ea67 663d 327a 933b
00000010: 58c1 873d 831a 063d 59e7 32bc 7400 bfbd
00000020: 4b65 15bd e8e8 fa3c 3ae6 133d da58 143d
00000030: d356 ca3c eddb 67bc 3623 973d 5a36 19bd
00000040: 63cc 833d b23a 5b3c ade2 5a3b 1761 583d
00000050: 302d c33c afda 063c b1ff 823d 39af de3c
00000060: 62d8 cdbc 7615 33bc 9cd6 b63b 5ee7 6a3d
00000070: 47e8 4ebd 0a16 113d a327 43bd e818 223d
00000080: 7fa1 a23c fbc4 503d 68be 7f3c 0b24 803c
00000090: 98df 0ebd 72f9 4fbd 4f9f 7cbd 25a8 a5bd
000000a0: 1e16 b13c 2c39 beb9 52e1 b43b b34c 383c
000000b0: 7dba 803d 452b dfbb 7410 113c 0dcf f1bc
000000c0: 7cdb df3c dd9c c73b

norm_3.running_mean f4 [50]
-2.1402323 0.44652474 1.23969 1.4846971 -0.95924526 0.77083707 -0.1012116 0.5045666
1.6813858 0.8696782 0.4133423 -1.0451614 0.19406545 0.22710353 0.42037776 1.7221395
-0.09180598 -1.243588 1.2448198 -1.0037127 0.27402732 0.21450523 -0.637333 0.24141422
0.12277834 -0.8545189 -0.16298768 -0.89691335 0.9329474 -0.7531866 -0.054458257 0.18954183
-0.036357142 -0.1274073 0.24201065 1.4479476 -0.58312714 -0.28820106 -1.5593596 -1.235402
-0.95741147 -0.9415395 -2.1063573 1.5900687 0.6115185 -0.9512818 -0.5592517 2.1344814
-0.010475028 1.5416135
00000000: 91f9 08c0 e49e e43e 29ae 9e3f 8e0a be3f
00000010: 1991 75bf 9455 453f 0748 cfbd 472b 013f
00000020: a637 d73f 3ba3 5e3f 9aa1 d33e d9c7 85bf
00000030: 18b9 463e d48d 683e c13b d73e 116f dc3f
00000040: c604 bcbd e42d 9fbf 4156 9f3f a879 80bf
00000050: 4f4d 8c3e 42a7 5b3e 4128 23bf 4a35 773e
00000060: 3673 fb3d c0c1 5abf 3ee6 26be 1d9c 65bf
00000070: a4d5 6e3f d6d0 40bf 9f0f 5fbd 4117 423e
00000080: 3aeb 14bd 0f77 02be a4d1 773e 5956 b93f
00000090: d247 15bf 178f 93be 1899 c7bf a721 9ebf
000000a0: eb18 75bf bc08 71bf 8fce 06c0 5f87 cb3f
000000b0: 7a8c 1c3f 3487 73bf 1f2b 0fbf 589b 0840
000000c0: 749f 2bbc 9753 c53f

norm_3.running_var f4 [50]
2.2592793 1.1161422 1.4056801 1.0280504 0.8642801 1.9320865 1.3643994 0.9301331
0.89321935 1.0895035 0.6503338 0.7681594 1.4244195 0.8870419 1.0349741 1.1080642
1.1939616 1.5242416 1.4209956 0.743749 1.0769197 1.20586 1.0853838 0.94077
0.50447226 0.86934996 1.3472813 1.0863835 1.0063052 1.291478 0.84089106 0.6799079
1.2357409 1.4504734 1.0906017 0.8463882 0.9103263 1.0135905 1.4009272 0.969295
0.9921757 0.9718103 2.1814103 1.3764195 1.9983268 0.97510725 0.98843133 1.2992644
0.96559834 2.2403023
00000000: 0898 1040 bfdd 8e3f 53ed b33f 2897 833f
00000010: 7641 5d3f 9c4e f73f a4a4 ae3f 341d 6e3f
00000020: 06aa 643f da74 8b3f 477c 263f 18a6 443f
00000030: 6153 b63f 2e15 633f 087a 843f 0cd5 8d3f
00000040: bcd3 983f 591a c33f 2fe3 b53f 5666 3e3f
00000050: 81d8 893f 9f59 9a3f dbed 8a3f 4dd6 703f
00000060: 1825 013f b88d 5e3f b773 ac3f 9d0e 8b3f
00000070: 9cce 803f 274f a53f a344 573f 720e 2e3f
00000080: c22c 9e3f 1da9 b93f d698 8b3f e6ac 583f
00000090: 250b 693f 55bd 813f 9551 b33f b823 783f
000000a0: 3aff 7d3f 8fc8 783f 3a9c 0b40 842e b03f
000000b0: 2cc9 ff3f a1a0 793f d609 7d3f 4c4e a63f
000000c0: 7431 773f 1d61 0f40

norm_4.weight f4 [50]
0.98401254 0.9950637 0.9371976 0.97697884 1.0126958 0.93345594 0.99141574 1.0455791
1.0060861 0.97926366 1.0342844 0.9762895 1.0097314 1.0132941 1.0035616 0.97907037
1.0426736 1.0271027 0.93813163 1.0690434 0.9951896 0.9755541 0.9917513 0.99240243
1.0140069 0.9790424 1.0046473 0.9930634 0.99609596 1.0126679 0.99878305 1.0291724
1.0613095 1.003132 1.0087783 1.0260699 0.9599079 0.98377955 1.0013478 1.0061125
0.9708704 0.9288091 1.0186774 1.0004451 0.98192394 1.01341 1.0017369 0.9091815
0.9698243 0.99218434
00000000: 3fe8 7b3f 7fbc 7e3f 2fec 6f3f 491b 7a3f
00000010: 04a0 813f f8f6 6e3f 6ccd 7d3f 89d5 853f
00000020: 6ec7 803f 06b1 7a3f 6e63 843f 1cee 793f
00000030: e13e 813f 9fb3 813f b574 803f 5ba4 7a3f
00000040: 5476 853f 1a78 833f 6529 703f 6ad6 883f
00000050: bfc4 7e3f eabd 793f 6ae3 7d3f 160e 7e3f
00000060: faca 813f 86a2 7a3f 4898 803f 6739 7e3f
00000070: 2500 7f3f 1a9f 813f 3fb0 7f3f ecbb 833f
00000080: fdd8 873f a166 803f a61f 813f 4256 833f
00000090: 86bc 753f fad8 7b3f 2a2c 803f 4bc8 803f
000000a0: f68a 783f 6fc6 6d3f 0564 823f 960e 803f
000000b0: 5e5f 7b3f 6bb7 813f ea38 803f 1ec0 683f
000000c0: 6846 783f cbff 7d3f

norm_4.bias f4 [50]
-0.027810289 -0.16718392 -0.06256171 -0.069795854 0.011130706 -0.06259347 -0.08698729 -0.12896214
-0.03593768 -0.058738355 -0.13398476 -0.1233 -0.041618917 -0.088738374 -0.060175724 -0.014804681
-0.01569356 -0.029751813 -0.035993867 -0.06218093 -0.034788065 0.019407988 -0.10884231 -0.0040434483
-0.00519286 -0.17014505 -0.14119917 -0.16060685 -0.015085417 0.056119002 0.06543434 0.044759862
-0.13522068 -0.08949257 -0.09006594 -0.11133498 -0.061883382 -0.065416336 -0.008242874 0.034550715
-0.061300144 0.043675732 -0.045897786 -0.056221407 -0.07316926 -0.043141246 -0.13413727 -0.08291919
-0.099961124 -0.029352741
00000000: 67d2 e3bc 4332 2bbe 5b20 80bd 21f1 8ebd
00000010: 915d 363c 0131 80bd 6426 b2bd a70e 04be
00000020: 6433 13bd a197 70bd 4d33 09be b684 fcbd
00000030: 9978 2abd 77bc b5bd d27a 76bd 558f 72bc
00000040: c88f 80bc 13ba f3bc 4e6e 13bd 6eb1 7ebd
00000050: ee7d 0ebd 80fd 9e3c b8e8 debd e77e 84bb
00000060: de28 aabb 813a 2ebe 8496 10be 1f76 24be
00000070: d328 77bc 0add 653d 7002 863d 1e56 373d
00000080: 4a77 0abe e147 b7bd 7e74 b8bd 9803 e4bd
00000090: 6e79 7dbd 00f9 85bd 1f0d 07bc 0d85 0d3d
000000a0: dc15 7bbd 53e5 323d 51ff 3bbd 6b48 66bd
000000b0: c4d9 95bd e0b4 30bd 485b 09be 89d1 a9bd
000000c0: 6bb8 ccbd 2975 f0bc

norm_4.running_mean f4 [50]
0.0022947663 0.009796108 0.058986787 0.0073265606 0.06575482 0.034634903 -0.011932786 -0.091798715
-0.035765115 0.031510245 0.03795176 0.035253137 0.0256272 -0.012554374 0.07487908 -0.03537223
0.06435214 0.01207631 0.0034103882 0.05310742 0.023679862 0.0073869997 0.064591594 0.02884321
-0.025135033 -0.0124132605 0.004878028 0.05866026 -0.05119517 0.036408488 -0.045380466 0.038397517
0.019266054 0.048803084 0.017705357 0.017745549 -0.036649633 -0.051034626 -0.06427809 -0.08198582
0.01810977 -0.0013599244 0.004506968 0.013950464 0.062424533 -0.008680338 0.0075995973 -0.028235879
0.0241048 0.007793177
00000000: ca63 163b db7f 203c 219c 713d a513 f03b
00000010: 77aa 863d 54dd 0d3d bb81 43bc f700 bcbd
00000020: 717e 12bd e310 013d 4e73 1b3d 9865 103d
00000030: 22f0 d13c dcb0 4dbc 345a 993d 79e2 10bd
00000040: 0ecb 833d b7db 453c d280 5f3b 2b87 593d
00000050: 45fc c13c a50e f23b 9948 843d 9848 ec3c
00000060: fce7 cdbc fd60 4bbc ddd7 9f3b be45 703d
00000070: 07b2 51bd 1121 153d dee0 39bd b746 1d3d
00000080: d8d3 9d3c bee5 473d d30a 913c 1d5f 913c
00000090: ed1d 16bd af09 51bd 3ba4 83bd 2ee8 a7bd
000000a0: f15a 943c 7e3f b2ba 30af 933b 7d90 643c
000000b0: deb0 7f3d fa37 0ebc 0b06 f93b ee4e e7bc
000000c0: 6e77 c53c e85d ff3b

norm_4.running_var f4 [50]
0.83288705 0.8196877 0.64840144 0.77354485 0.77941954 0.74829966 0.806635 0.781544
0.6562914 0.67164034 0.7211247 0.659167 0.8197607 0.79757714 0.8131211 0.6766342
0.81745154 0.9039031 0.6980642 0.7785387 0.71357685 0.79091626 0.7762151 0.7729409
0.61906725 0.6977063 0.7810423 0.800187 0.7316104 0.6942492 0.69996035 0.70046484
0.943302 0.83985686 0.796809 0.8756947 0.4901496 0.76126456 0.807706 0.6522582
0.6921564 0.5888655 0.89895046 0.8163132 0.8503944 0.64215666 0.71642977 0.68460155
0.705413 0.87996364
00000000: 1638 553f 0ed7 513f a3fd 253f 0907 463f
00000010: 0a88 473f 9190 3f3f a27f 4e3f 4513 483f
00000020: b702 283f 9ff0 2b3f a19b 383f 2bbf 283f
00000030: d6db 513f 042e 4c3f b428 503f e637 2d3f
00000040: 8144 513f 3266 673f 56b4 323f 504e 473f
00000050: f9ac 363f 7d79 4a3f 08b6 463f 74df 453f
00000060: 317b 1e3f e19c 323f 63f2 473f 0ed9 4c3f
00000070: d24a 3b3f 51ba 313f 9a30 333f aa51 333f
00000080: 3d7c 713f dc00 573f adfb 4b3f 872d 603f
00000090: e3f4 fa3e 3ce2 423f d2c5 4e3f 65fa 263f
000000a0: 2931 313f e4bf 163f 9e21 663f e7f9 503f
000000b0: 73b3 593f 6164 243f f167 373f 0c42 2f3f
000000c0: f295 343f 4c45 613f

conv_4.weight f4 [25, 25, 3, 3]
-0.13664204 0.0028181905 -0.06669675 -0.07550798 -0.04091888 0.049677137 0.010663634 0.011146504
0.03647713 0.07946215 0.053050976 0.07361378 0.021950344 0.056992043 -0.04250955 0.03760059
0.06918278 -0.052920267 0.032584973 -0.0053276424 0.00021358428 0.049052488 -0.034440283 -0.05760535
-0.083514564 -0.031734187 -0.062459048 0.046395734 -0.022000689 0.010797197 -0.02110769 0.047694553
-0.04226162 0.005747737 -0.06636735 -0.014129326 -0.050332103 -0.0062841494 0.009655824 0.018920556
-0.01895133 0.07402412 0.06438819 0.00325371 -0.017043985 0.037126865 2.503792e-05 -0.021412283
0.042549636 -0.002326629 -0.029072525 0.07131958 0.03619653 -0.052206833 -0.06825489 -0.17158075
-0.14598162 -0.0718655 -0.121526904 -0.1372047 -0.054808542 -0.04694872 -0.015438293 -0.10497917
-0.0014150115 -0.0734668 0.0638604 -0.013363799 0.043342844 0.02256172 0.0026058927 -0.03854589
0.059760828 -0.021384114 0.035782553 0.021833232 0.030614214 -0.0056030904 0.08184182 0.07849717
0.002391743 -0.09555689 -0.033181664 -0.02714681 0.035558905 -0.038437393 -0.005498504 -0.019340409
0.030967573 -0.03787998 0.06325607 0.091922484 -0.01318268 0.10891077 0.10782299 0.0076600276
0.015632417 0.082204565 -0.0075403154 0.073550746 -0.008767178 0.05855794 -0.02195049 0.008063423
0.017432809 0.052051067 -0.039523225 -0.111718625 0.009119586 0.045650102 0.052812383 -0.065128505
-0.048958603 0.0345169 0.028929835 -0.020046705 0.03958543 0.06998814 0.11488787 0.08713115
0.05139538 0.021173116 0.05337972 0.08946005 0.019608969 0.07207907 -0.048556812 0.018155312
0.032605562 -0.0011592975 0.055927094 -0.005944547 -0.056139447 -0.05144625 -0.055593207 0.11268361
0.16180074 0.13013464 0.020894073 0.051283665 0.07064704 -0.05784991 0.016816242 0.036870882
-0.03333867 -0.107322246 -0.095465064 -0.071499825 -0.06936998 -0.084161974 -0.027234616 -0.021332113
-0.119817 -0.014625509 -0.051755104 -0.08585006 0.021840928 -0.009673059 -0.016670978 0.041601736
0.04325477 -0.020291869 0.040204756 -0.009782643 -0.061308865 -0.07032342 -0.011683422 0.024233157
0.023713602 0.029068476 -0.009223836 -0.050020028 0.08135804 -0.017019747 -0.07163456 0.019295705
0.071492076 -0.07958164 0.039144956 -0.026466927 0.09755795 0.07406851 -0.014203377 -0.039248478
-0.037227355 -0.05194572 0.012825185 0.031293422 -0.04469183 0.035400245 -0.022290662 -0.022568397
0.04612187 0.01641527 -0.061978094 0.0025929185 -0.041986458 0.01405261 -0.024738621 -0.02952623
0.0059607876 0.064591326 0.046725564 0.063026056 0.0063457997 -0.029769981 0.043491162 -0.03805485
0.12041369 0.06734988 0.012885108 0.052974686 0.015239356 -0.017595012 0.017430814 0.07704267
0.04266002 0.0018403651 -0.011020718 0.061836157 0.040829547 -0.0006607476 -0.007475716 0.015441244
0.027493525 0.0054732254 -0.09912799 -0.09606667 -0.0020920858 -0.104699604 -0.065278776 0.038790945
-0.01955778 -0.06525787 0.017479513 0.040637966 -0.0028551924 0.0046970774 0.060614657 -0.0123219155
0.056284573 -0.054465827 0.033937395 0.010317512 0.082576215 0.052626185 0.13766563 0.0577437
0.04515922 0.12561515 0.031601526 0.052911084 -0.031005085 -0.012498546 -0.07465718 -0.029882094
00000000: e4eb 0bbe 64b1 383b 4e98 88bd eea3 9abd
00000010: 8e9a 27bd 417a 4b3d 86b6 2e3c d49f 363c
00000020: 0b69 153d 0dbd a23d fb4b 593d d2c2 963d
00000030: 35d1 b33c 7d70 693d 7e1e 2ebd 1403 1a3d
00000040: b4af 8d3d ecc2 58bd d277 053d 8193 aebb
00000050: 98f5 5f39 43eb 483d 4111 0dbd 96f3 6bbd
00000060: af09 abbd b5fb 01bd 0fd5 7fbd 7409 3e3d
00000070: ca3a b4bc bae6 303c 09ea acbc 5d5b 433d
00000080: 851a 2dbd 8357 bc3b 9beb 87bd b07e 67bc
00000090: 0929 4ebd 44eb cdbb 7633 1e3c 48ff 9a3c
000000a0: d23f 9bbc f599 973d f5dd 833d 323c 553b
000000b0: d49f 8bbc 5712 183d 8608 d237 d068 afbc
000000c0: 8748 2e3d 5b7a 18bb 8129 eebc 0010 923d
000000d0: d042 143d d5d6 55bd 38c9 8bbd ddb2 2fbe
000000e0: 357c 15be 382e 93bd 19e3 f8bd 647f 0cbe
000000f0: ec7e 60bd 4d4d 40bd e5f0 7cbc 52ff d6bd
00000100: e877 b9ba c375 96bd 3ec9 823d d6f3 5abc
00000110: 4488 313d 5bd3 b83c a0c7 2a3b 4ce2 1dbd
00000120: c5c7 743d bd2d afbc ba90 123d 9bdb b23c
00000130: a9ca fa3c 219a b7bb af9c a73d 20c3 a03d
00000140: cabe 1c3b 55b3 c3bd 7fe9 07bd fd62 debc
00000150: 37a6 113d 8770 1dbd cb2c b4bb c76f 9ebc
00000160: b5af fd3c 0a28 1bbd 668c 813d db41 bc3d
00000170: 2bfc 57bc 9c0c df3d 4dd2 dc3d f800 fb3b
00000180: 8e0f 803c de5a a83d c014 f7bb c6a1 963d
00000190: 36a4 0fbc 73da 6f3d 84d1 b3bc 731c 043c
000001a0: 40cf 8e3c 8033 553d 1be3 21bd bccc e4bd
000001b0: 516a 153c 9afb 3a3d cc51 583d 1862 85bd
000001c0: d188 48bd 9861 0d3d 43fe ec3c fd38 a4bc
000001d0: 5524 223d f155 8f3d 554a eb3d d171 b23d
000001e0: f683 523d 3e73 ad3c b1a4 5a3d d536 b73d
000001f0: fda2 a03c 319e 933d 82e3 46bd 73ba 943c
00000200: 698d 053d 92f3 97ba cf13 653d 79ca c2bb
00000210: 7af2 65bd 4eb9 52bd b4b5 63bd aac6 e63d
00000220: 18af 253e 0442 053e 0c2a ab3c d20e 523d
00000230: 65af 903d 07f4 6cbd 37c2 893c ec05 173d
00000240: 218e 08bd c4cb dbbd 3083 c3bd 806e 92bd
00000250: d911 8ebd 1d5d acbd 211b dfbc afc0 aebc
00000260: 9e62 f5bd d59f 6fbc 29fd 53bd 28d2 afbd
00000270: bfeb b23c c07b 1ebc 9391 88bc 9566 2a3d
00000280: ea2b 313d 223b a6bc bead 243d 6147 20bc
00000290: 011f 7bbd ba05 90bd d36b 3fbc 9d84 c63c
000002a0: 0743 c23c 0321 ee3c 921f 17bc cde1 4cbd
000002b0: 0b9f a63d ff6c 8bbc 24b5 92bd 0712 9e3c
000002c0: 706a 923d b3fb a2bd 7656 203d 2bd1 d8bc
000002d0: 76cc c73d 3bb1 973d 48b5 68bc 03c3 20bd
000002e0: b67b 18bd 09c5 54bd ba20 523c 882d 003d
000002f0: c80e 37bd d9ff 103d e89a b6bc 5ce1 b8bc
00000300: 49ea 3c3d 5179 863c bedc 7dbd f4ed 293b
00000310: fef9 2bbd eb3c 663c a6a8 cabc fee0 f1bc
00000320: b652 c33b 7548 843d 4e63 3f3d ce13 813d
00000330: 6df0 cf3b 2de0 f3bc ca23 323d 67df 1bbd
00000340: 749b f63d bcee 893d 0f1c 533c fcfb 583d
00000350: 7eae 793c 6a23 90bc 11cb 8e3c 8cc8 9d3d
00000360: 46bc 2e3d 6838 f13a 3e90 34bc e947 7d3d
00000370: e23c 273d 0536 2dba daf6 f4bb 45fd 7c3c
00000380: 1a3a e13c be58 b33b 9e03 cbbd 9abe c4bd
00000390: 601b 09bb bf6c d6bd e1b0 85bd 41e3 1e3d
000003a0: a337 a0bc eba5 85bd 3231 8f3c ff73 263d
000003b0: 2e1e 3bbb f1e9 993b 1347 783d dce1 49bc
000003c0: a78a 663d 8f17 5fbd f001 0b3d c80a 293c
000003d0: b81d a93d 8e8e 573d 38f8 0c3e a884 6c3d
000003e0: e0f8 383d 42a1 003e 9a70 013d 4bb9 583d
000003f0: 60fe fdbc b4c6 4cbc dde5 98bd 4bcb f4bc

conv_4.bias f4 [25]
0.016583899 -0.05997539 0.008200288 -0.07873335 0.05670195 -0.048272032 0.03606759 0.035672612
-0.022066437 -0.072869316 0.036264572 -0.011263055 0.04537082 -0.14207044 0.0043296046 -0.004291976
-0.057793647 0.07825648 -0.078109905 0.025954142 -0.01143155 0.03443246 0.08583724 -0.05825948
0.040721927
00000000: f5da 873c c1a8 75bd 805a 063c f33e a1bd
00000010: 4e40 683d e5b8 45bd 9cbb 133d 721d 123d
00000020: acc4 b4bc 823c 95bd 298a 143d ad88 38bc
00000030: c1d6 393d ea7a 11be 5bdf 8d3b b4a3 8cbb
00000040: 08b9 6cbd ef44 a03d 16f8 9fbd c89d d43c
00000050: 654b 3bbc 0d09 0d3d 6fcb af3d 7ea1 6ebd
00000060: 09cc 263d

norm_5.weight f4 [25]
0.96294415 1.0245045 1.0388987 1.0295242 1.0197861 0.9743825 1.0458407 0.9814854
0.98822707 1.0059502 0.9099781 0.94772375 0.9992098 0.97426003 1.0668379 1.0422168
1.0225897 0.98755413 1.0834252 1.0174953 0.9866137 0.99799544 0.9960922 1.0081555
0.97811943
00000000: 8283 763f f722 833f a2fa 843f 73c7 833f
00000010: 5a88 823f 2271 793f 1cde 853f a142 7b3f
00000020: 73fc 7c3f fac2 803f 53f4 683f 069e 723f
00000030: 37cc 7f3f 1b69 793f 258e 883f 5c67 853f
00000040: 38e4 823f 59d0 7c3f adad 8a3f 493d 823f
00000050: b792 7c3f a17c 7f3f e6ff 7e3f 3d0b 813f
00000060: 0966 7a3f

norm_5.bias f4 [25]
0.043312218 0.019860163 -0.054746337 0.043869823 -0.02312147 0.021626338 -0.03301569 -0.07874901
0.029812979 0.02266581 -0.034578763 0.051185798 0.027777113 0.12332908 -0.024883281 0.011542942
0.057884045 -0.043862563 0.05339075 0.037424784 -0.024827372 -0.005010161 -0.035563137 0.0086965095
0.0068874937
00000000: 2768 313d c8b1 a23c b23d 60bd d8b0 333d
00000010: 3d69 bdbc b829 b13c 763b 07bd 2947 a1bd
00000020: 593a f43c a6ad b93c 76a2 0dbd 33a8 513d
00000030: d48c e33c f593 fc3d 06d8 cbbc 9c1e 3d3c
00000040: d217 6d3d 3ba9 33bd 42b0 5a3d bb4a 193d
00000050: c662 cbbc 472c a4bb a7aa 11bd ce7b 0e3c
00000060: 7cb0 e13b

norm_5.running_mean f4 [25]
-0.045049474 -0.2689765 -2.5104961 0.8746448 -0.48528978 -0.8022378 -0.6958879 0.53532565
-2.9795172 -1.4320666 -0.82989424 -3.7524679 0.6860836 0.19796574 -0.19177121 -1.4117213
-1.3816342 -1.5835727 -0.5062739 -1.5985028 -0.2965577 -0.5347479 2.079554 0.0020653072
1.4972196
00000000: cc85 38bd 4ab7 89be f8ab 20c0 b9e8 5f3f
00000010: e777 f8be 755f 4dbf b625 32bf 1a0b 093f
00000020: 69b0 3ec0 f54d b7bf f373 54bf 6f28 70c0
00000030: 2da3 2f3f 88b7 4a3e ac5f 44be 49b3 b4bf
00000040: 64d9 b0bf 83b2 cabf 2b9b 01bf bd9b ccbf
00000050: 69d6 97be 3de5 08bf 6a17 0540 1b5a 073b
00000060: e4a4 bf3f

norm_5.running_var f4 [25]
0.72653824 1.6238526 1.6135424 0.77440256 0.8819506 1.2357199 0.7591153 0.76161546
1.1691425 0.9729082 1.0971144 1.8724123 0.7255676 0.8145934 0.6259761 1.5088207
1.062236 0.9036982 1.0279528 1.4778099 1.5831884 1.4039699 1.252105 0.86850864
1.1962981
00000000: 69fe 393f 67da cf3f 8f88 ce3f 3f3f 463f
00000010: 84c7 613f 122c 9e3f 6155 423f 3bf9 423f
00000020: 76a6 953f 8310 793f 3f6e 8c3f 35ab ef3f
00000030: ccbe 393f 3189 503f f83f 203f 0921 c13f
00000040: 59f7 873f c458 673f f593 833f e028 bd3f
00000050: eba5 ca3f 49b5 b33f fa44 a03f 9556 5e3f
00000060: 4c20 993f

norm_6.weight f4 [25]
0.95450807 1.0193869 1.0372559 1.0316542 1.01751 0.97429734 1.0362505 0.9751386
0.98554295 1.000065 0.9131886 0.9484141 0.9996661 0.9691597 1.0678304 1.0445715
1.0187789 0.9879707 1.0866241 1.017966 0.9874466 1.0058035 0.990948 1.018436
0.97257996
00000000: a45a 743f 457b 823f cdc4 843f 3f0d 843f
00000010: c53d 823f 8d6b 793f dba3 843f afa2 793f
00000020: 8b4c 7c3f 2102 803f bac6 693f 44cb 723f
00000030: 1eea 7f3f da1a 783f abae 883f 85b4 853f
00000040: 5967 823f a6eb 7c3f 8016 8b3f b64c 823f
00000050: 4dc9 7c3f 2bbe 803f c5ae 7d3f 1c5c 823f
00000060: 00fb 783f

norm_6.bias f4 [25]
-0.07253016 0.009804125 -0.17330216 -0.08106228 -0.07572035 -0.14027151 -0.0212271 -0.0884116
-0.0063412758 -0.032703005 -0.1323164 -0.06157039 -0.24635072 -0.10382 0.0054305494 -0.029675795
0.04593683 -0.0133249005 0.033929273 0.00814676 -0.16663933 0.020403951 -0.0071609146 -0.0040781065
-0.01769471
00000000: b18a 94bd 7ba1 203c 1f76 31be fb03 a6bd
00000010: 4513 9bbd 56a3 0fbe 75e4 adbc 2411 b5bd
00000020: 7aca cfbb 96f3 05bd f37d 07be 3c31 7cbd
00000030: 5d43 7cbe 959f d4bd c0f2 b13b a71a f3bc
00000040: 4228 3c3d af50 5abc 6cf9 0a3d fd79 053c
00000050: 80a3 2abe 3026 a73c 1ba6 eabb a3a1 85bb
00000060: 7ff4 90bc

norm_6.running_mean f4 [25]
0.0426729 0.020897135 -0.057739243 0.04401021 -0.025985643 0.021936595 -0.036537766 -0.07829045
0.030160522 0.021302951 -0.034589875 0.048941214 0.028028933 0.122742794 -0.026178066 0.011468695
0.054674927 -0.04543481 0.05266124 0.036564246 -0.024065642 -0.0041175624 -0.035562694 0.008350685
0.0069803223
00000000: c7c9 2e3d 7830 ab3c fc7f 6cbd 0d44 343d
00000010: d8df d4bc 60b4 b33c a0a8 15bd be56 a0bd
00000020: 3313 f73c 8783 ae3c 1dae 0dbd 9576 483d
00000030: ef9c e53c 9360 fb3d 6273 d6bc 31e7 3b3c
00000040: d1f2 5f3d da19 3abd 50b3 573d 64c4 153d
00000050: 4f25 c5bc 9eec 86bb 30aa 11bd 50d1 083c
00000060: 30bb e43b

norm_6.running_var f4 [25]
0.7007078 0.886004 0.859721 0.68787605 0.7164317 0.8053683 0.83122396 0.67444515
0.7765828 0.63376355 0.6845896 0.72604847 0.7932287 0.7104639 0.7923906 0.89811915
0.7198408 0.6834214 0.93150723 0.8811473 0.7778219 0.77859914 0.8290587 0.80205053
0.7136454
00000000: 9661 333f 28d1 623f ad16 5c3f a518 303f
00000010: 1168 373f 9e2c 4e3f 18cb 543f 70a8 2c3f
00000020: 21ce 463f 543e 223f 4441 2f3f 50de 393f
00000030: 0911 4b3f f6e0 353f 1cda 4a3f 23eb 653f
00000040: 7d47 383f b4f4 2e3f 4277 6e3f df92 613f
00000050: 561f 473f 4652 473f 313d 543f 2f53 4d3f
00000060: 77b1 363f
